docs/models/warehouse_dqn.onnx (onnx, 434585 bytes, 6 tensors)

policy.q_net.q_net.0.weight f4 [64, 1620]
-0.010588275 -0.18850268 0.0140143 0.0040957015 -0.16282518 -0.03611826 0.018418865 -0.09192184
-0.09420354 0.021053491 0.06368975 -0.08519508 0.011022558 -0.05410371 0.028279234 0.0026899017
-0.16415647 0.03640167 0.011081519 -0.058665227 -0.07316659 -0.023418877 -0.020467473 -0.027852567
-0.0016199835 0.08609407 -0.021184456 0.010935178 -0.043428294 0.04488402 -0.0021253005 0.08099534
-0.041695103 -0.021935008 0.03926821 -0.14830369 0.01637621 -0.07042143 -0.03785894 -0.0040921997
0.083567485 0.06414651 -0.0054813195 0.018526074 0.0012457833 0.023538617 0.09294012 -0.032962617
-0.015132325 0.07488872 0.014178583 -0.006688768 0.0021929354 -0.036719553 -0.006140493 0.09160639
0.033669703 -0.021802325 0.18386483 -0.07015991 0.014042368 -0.021949995 -0.021176532 0.01266619
0.01470737 -0.025738869 -0.011997176 -0.0132344775 0.041866634 -0.0025415942 0.07527581 0.16182579
-0.010660428 -0.02712706 -0.0099884765 -0.00031357817 0.10252326 -0.034103505 -0.0077778082 0.050426885
-0.20181616 0.020746058 -0.018250037 -0.13182375 0.006015284 0.019394487 -0.054293115 -0.0176006
-0.039748315 -0.043513283 0.02429376 -0.2324395 0.18212175 -0.019743605 -0.08634861 0.10604719
-0.01561729 -0.1283542 0.11565964 -0.010918931 0.024240412 0.051484127 0.019320777 -0.056836274
0.03719121 -0.000831455 0.04167284 -0.03429041 0.020900642 -0.03501142 -0.021799073 -0.0046844613
0.022986773 -0.04617295 0.012987366 -0.04121879 -0.14145601 -0.01450046 0.105454616 0.07987
-0.00047130696 0.06842918 0.026729843 -0.0033066105 0.018797804 -0.017158777 0.0006864574 0.06826577
0.024884135 -0.023774058 -0.028190408 0.07041539 0.0036372915 0.004617005 0.11820223 0.014946429
0.08402118 -0.08201329 -0.02063728 -0.012802109 0.11789731 0.016190568 -0.014947304 0.018619759
0.003451299 0.0016336985 0.029192552 0.017174112 0.10582861 -0.080846794 0.018870281 0.030770093
-0.097343996 -0.017243313 0.054496612 -0.048063185 0.011001514 0.10785291 -0.048145752 -0.024172777
0.09050406 -0.019674288 -0.014715455 0.021616578 -0.038669866 -0.02115082 0.046281256 -0.0376252
-0.01990553 0.16376562 -0.04739506 0.021306863 -0.03055757 -0.08047517 0.00799573 0.053482626
0.0072428156 0.01515648 0.0014641468 -0.04046636 0.020757655 -0.0019893574 -0.05476499 0.0144026335
0.02673734 0.18106729 0.12027998 0.060467985 -0.010609056 0.15263015 -0.026055772 0.19919592
0.013807945 -0.054783758 0.03790947 0.114297815 0.0060995044 0.035752576 0.053919397 -0.07091347
0.038353216 0.00030203798 0.075106315 0.100132704 -0.019416288 -0.012027294 -0.19385123 0.024741493
-0.010436448 -0.089115694 0.013610454 0.026003323 0.010458073 0.052473895 0.046941124 -0.026149454
-0.03255387 0.014331377 0.10178118 0.05305456 0.031614386 -0.0006618994 -0.0064925826 0.09705274
0.031860586 0.06261063 -0.027381426 -0.1292051 0.039773654 0.04895854 0.14226636 0.027977964
0.11319599 -0.020859228 0.1821219 -0.028647043 0.067391746 -0.042828202 0.09381402 0.013625948
0.097010165 0.08486398 -0.1520222 -0.005600097 0.017970733 -0.006475477 0.027923556 -0.010138165
-0.049177695 -0.0025250104 -0.09280559 -0.11183781 -0.1772976 0.013793151 -0.14502506 -0.013063325
00000000: 727a 2dbc d906 41be 3c9c 653c 3c35 863b
00000010: a5bb 26be bef0 13bd 29e3 963c 8541 bcbd
00000020: c9ed c0bd 5f78 ac3c c66f 823d c27a aebd
00000030: f697 343c da9b 5dbd daa9 e73c 1049 303b
00000040: a218 28be eb19 153d 428f 353c f34a 70bd
00000050: 5dd8 95bd f2d8 bfbc 67ab a7bc 112b e4bc
00000060: a055 d4ba 1652 b03d 068b adbc 7629 333c
00000070: dee1 31bd 4ed8 373d a048 0bbb e3e0 a53d
00000080: 7cc8 2abd 0cb1 b3bc b4d7 203d ecdc 17be
00000090: 6727 863c 1c39 90bd fa11 1bbd dc17 86bb
000000a0: 6e25 ab3d 3f5f 833d a49c b3bb fec3 973c
000000b0: 8d49 a33a 0fd4 c03c 6457 be3d cf03 07bd
000000c0: 92ed 77bc 425f 993d 4a4d 683c 742d dbbb
000000d0: 5ab7 0f3b 3e67 16bd 3036 c9bb 229c bb3d
000000e0: 3ee9 093d ca9a b2bc 1047 3c3e 00b0 8fbd
000000f0: f611 663c 7ad0 b3bc 687a adbc da85 4f3c
00000100: 2ef7 703c 52da d2bc ce8f 44bc 6cd5 58bc
00000110: 597c 2b3d e090 26bb 342a 9a3d a9b5 253e
00000120: 13a9 2ebc 9139 debc b5a6 23bc c067 a4b9
00000130: b7f7 d13d 1eb0 0bbd fcdc febb 6c8c 4e3d
00000140: e5a8 4ebe a3f3 a93c 1a81 95bc cefc 06be
00000150: dc1b c53b 30e1 9e3c 7562 5ebd 222f 90bc
00000160: 21cf 22bd fc3a 32bd b503 c73c 9f04 6ebe
00000170: 207e 3a3e 57bd a1bc 8ad7 b0bd 452f d93d
00000180: a9df 7fbc 496f 03be f6de ec3d 51e5 32bc
00000190: d493 c63c 05e1 523d 9b46 9e3c 27cd 68bd
000001a0: cf55 183d 00f6 59ba 24b1 2a3d 1a74 0cbd
000001b0: d337 ab3c 2268 0fbd f893 b2bc 1c80 99bb
000001c0: c24e bc3c d91f 3dbd f6c8 543c 09d5 28bd
000001d0: d8d9 10be 5693 6dbc 97f8 d73d e292 a33d
000001e0: c019 f7b9 9924 8c3d 8bf8 da3c b8b3 58bb
000001f0: dafd 993c 9090 8cbc 60f3 333a edce 8b3d
00000200: d0d9 cb3c d0c1 c2bc 92ef e6bc f235 903d
00000210: a05f 6e3b 3f4a 973b 0314 f23d dee1 743c
00000220: 4c13 ac3d 95f6 a7bd 830f a9bc f0bf 51bc
00000230: 2574 f13d 15a2 843c 89e5 74bc 7788 983c
00000240: 302f 623b d321 d63a 3825 ef3c b9b0 8c3c
00000250: acbc d83d 0193 a5bd d995 9a3c 9011 fc3c
00000260: 4a5c c7bd d941 8dbc d737 5f3d e7dd 44bd
00000270: b23f 343c fde1 dc3d 7b34 45bd fd05 c6bc
00000280: 315a b93d f92b a1bc 1719 71bc 4015 b13c
00000290: 4b64 1ebd 7c44 adbc 6a91 3d3d e21c 1abd
000002a0: ec10 a3bc 2db2 273e 5321 42bd bb8b ae3c
000002b0: de53 fabc 2ad0 a4bd 8600 033c 9910 5b3d
000002c0: 2455 ed3b e252 783c 9de8 bf3a 0ec0 25bd
000002d0: f50b aa3c e15f 02bb 4151 60bd 06f9 6b3c
000002e0: 4408 db3c b469 393e 5a55 f63d 47ad 773d
000002f0: 9bd1 2dbc 144b 1c3e ea72 d5bc 04fa 4b3e
00000300: b83a 623c ef64 60bd f646 1b3d f914 ea3d
00000310: 5ade c73b 4b71 123d 96da 5c3d 153b 91bd
00000320: 4318 1d3d da5a 9e39 57d1 993d 6012 cd3d
00000330: e80e 9fbc 210e 45bc f080 46be acae ca3c
00000340: a3fd 2abc 4a82 b6bd 62fe 5e3c ec04 d53c
00000350: 5658 2b3c deee 563d 5645 403d 6137 d6bc
00000360: 3557 05bd 27ce 6a3c a772 d03d bd4f 593d
00000370: 167e 013d 5183 2dba bbbf d4bb 96c3 c63d
00000380: 3f80 023d 013a 803d 034f e0bc 574e 04be
00000390: b3e9 223d c088 483d 46ae 113e 0b32 e53c
000003a0: 4dd3 e73d f9e0 aabc 2a7e 3a3e 34ad eabc
000003b0: af04 8a3d a06c 2fbd 9121 c03d 5e3f 5f3c
000003c0: 44ad c63d 2bcd ad3d b5ab 1bbe 0581 b7bb
000003d0: 5c37 933c 3d30 d4bb f1bf e43c 8c1a 26bc
000003e0: 8d6e 49bd a57a 25bb db10 bebd 390b e5bd
000003f0: 818d 35be abfc 613c 7381 14be 8e07 56bc

policy.q_net.q_net.0.bias f4 [64]
0.04989157 -0.091967106 0.065848865 -0.023966957 -0.09289089 0.045386635 -0.06612661 -0.0076563335
-0.045987986 -0.071944274 -0.026886191 -0.017054988 -0.049692184 -0.05967351 -0.036277335 0.014308588
0.06601553 -0.05478312 -0.08246311 -0.0027513895 -0.0595849 -0.045010496 -0.03760087 -0.03779266
-0.02090629 -0.035929307 0.06843933 -0.033547986 -0.16220546 0.02326762 -0.08722243 -0.014318078
-0.13349837 -0.0045563765 -0.08620668 -0.017235225 0.01283472 -0.0076777623 -0.09222665 0.008021576
0.029369604 -0.03737456 -0.020820461 0.04580783 0.11100637 -0.05038707 -0.107222736 -0.004435784
-0.045661278 -0.0017821483 -0.072491236 -0.027163763 -0.08433878 0.004479632 0.08409098 0.07976822
-0.06897642 -0.07108644 -0.09030188 0.04536021 -0.032683853 -0.008755186 -0.11167979 -0.09268283
00000000: 1a5b 4c3d 4059 bcbd c5db 863d 5a56 c4bc
00000010: 943d bebd 56e7 393d 636d 87bd fbe1 fabb
00000020: e65d 3cbd 8557 93bd 6e40 dcbc e7b6 8bbc
00000030: 088a 4bbd 366c 74bd 8b97 14bd 916e 6a3c
00000040: 2633 873d 4464 60bd 6be2 a8bd a850 34bb
00000050: 4c0f 74bd ed5c 38bd 5f03 1abd 7acc 1abd
00000060: ab43 abbc 9c2a 13bd eb29 8c3d 9d69 09bd
00000070: 3019 26be bc9b be3c aca1 b2bd 5f96 6abc
00000080: ccb3 08be a84d 95bb 218d b0bd e330 8dbc
00000090: b848 523c bd95 fbbb 53e1 bcbd ee6c 033c
000000a0: 8698 f03c 1116 19bd ac8f aabc fea0 3b3d
000000b0: 4f57 e33d ac62 4ebd 9897 dbbd 0e5a 91bb
000000c0: 5207 3bbd f996 e9ba 4976 94bd 8a86 debc
000000d0: cfb9 acbd e0c9 923b e437 ac3d 855d a33d
000000e0: 8243 8dbd c495 91bd 31f0 b8bd a1cb 393d
000000f0: 81df 05bd e971 0fbc 60b8 e4bd 7fd0 bdbd

policy.q_net.q_net.2.weight f4 [64, 64]
-0.04916722 -0.07836641 0.2134424 -0.3480017 0.34729367 0.20753288 0.08493058 0.26272413
-0.2985353 0.034994714 -0.098114625 -0.18250571 -0.16712667 0.19328423 0.0057514957 -0.12791342
0.14129572 0.016166683 -0.27296406 0.21089788 0.019569127 0.0010952647 0.27829376 -0.054658074
0.17225902 0.25562653 0.2238722 -0.071478546 -0.14005648 -0.05708603 -0.17308713 0.3974445
-0.08355999 0.2905585 -0.09661456 -0.11319101 0.2739365 0.00256263 0.047352422 -0.06303115
-0.041950554 0.11363927 0.18866318 -0.004898284 -0.14640373 0.09585421 0.28986904 0.2978758
0.015364433 -0.113848135 0.05090401 -0.019994639 -0.0024570187 -0.14941068 0.27536222 -0.31349412
-0.05164181 -0.22894825 0.17676134 0.03276091 0.047918342 0.1071402 -0.042412654 -0.019698823
-0.18030925 0.23962466 0.18972467 -0.07374572 0.14228025 0.2123421 -0.16263118 -0.03585055
-0.026470613 -0.3736442 -0.22426672 0.017828027 -0.18579547 -0.0395172 0.038302056 0.07841415
-0.37910533 -0.12614302 -0.12456894 -0.121957116 -0.226481 -0.07712628 0.07029038 0.10005114
0.10710613 0.116346434 -0.0738925 -0.06825746 -0.24925426 -0.2880523 -0.2654903 0.19976668
0.12960787 0.08436208 -0.04356159 -0.013686972 -0.25852183 -0.18105197 -0.085502155 -0.18968423
0.17385156 -0.19273594 -0.17540896 0.058011834 0.32409972 -0.15517527 -0.045898505 -0.04149399
-0.23798366 -0.21848533 -0.07589469 -0.31303442 -0.3542216 -0.015764793 0.14058773 -0.18530864
-0.3777417 -0.086741805 0.18578763 0.14433254 0.24210934 -0.088070974 -0.19769202 0.26595125
0.113528535 0.016782466 -0.12568335 -0.019684931 -0.2266953 0.070257716 -0.09589214 -0.25969696
0.001858862 0.11106101 0.19853376 0.117532976 0.15741979 -0.22725359 0.13224617 -0.10543027
-0.044659197 -0.061943125 -0.029226812 0.16626766 0.021446906 -0.020900384 -0.12037522 -0.009428101
-0.2604565 -0.10749995 0.24263656 0.21333373 0.072718464 0.19819516 0.13117819 -0.03531122
0.022667896 -0.09512637 -0.023453109 -0.091430016 -0.077536546 0.06473605 -0.078604735 0.08670796
-0.19045252 0.076590426 0.14793622 0.04942522 0.1288632 0.14433618 -0.04255085 -0.080364734
0.028926987 0.25743783 -0.027318712 0.1499133 0.0291339 0.15885057 0.046572044 0.036881667
0.1537756 0.12363282 -0.20893186 0.107981645 -0.06905816 0.05910872 -0.021050755 -0.09585703
-0.1109971 -0.10986722 0.20748745 0.09481697 -0.17061818 -0.14465934 -0.19407757 -0.06927205
-0.106198005 -0.11015479 0.0062029595 -0.058873676 -0.05777376 -0.11101042 -0.054068763 0.18074308
0.033576045 -0.03451026 -0.21729003 0.12595238 -0.103765756 -0.18675534 -0.04627728 0.0003711849
-0.08098773 -0.04655677 0.0010976103 -0.08483972 -0.14241153 0.01660717 -0.18403949 -0.1401539
-0.09246301 -0.050751 -0.076975405 -0.06199977 0.09738153 -0.2379506 0.12804341 0.12653394
-0.0023462896 -0.14274989 -0.11890844 -0.007159978 -0.31130156 0.023190474 -0.12469644 -0.019406758
0.06604194 -0.060989447 0.05442213 -0.16004583 -0.011616444 -0.09569289 0.32974502 0.10546221
-0.14940593 -0.09720199 -0.01131732 0.064152956 0.054925624 -0.18054597 -0.1590893 -0.050572064
00000000: 9163 49bd 927e a0bd a590 5a3e 472d b2be
00000010: 7ad0 b13e 8083 543e 15f0 ad3d c783 863e
00000020: 9ed9 98be 9e56 0f3d 52f0 c8bd c7e2 3abe
00000030: 4123 2bbe 4dec 453e 0b77 bc3b bcfb 02be
00000040: d3af 103e fe6f 843c f2c1 8bbe 9df5 573e
00000050: 6f4f a03c fc8e 8f3a 857c 8e3e 25e1 5fbd
00000060: ab64 303e 7be1 823e c13e 653e 5863 92bd
00000070: f76a 0fbe 0ad3 69bd c13d 31be d87d cb3e
00000080: 8021 abbd 15c4 943e dbdd c5bd b0d0 e7bd
00000090: 6841 8c3e ccf1 273b 9df4 413d 7a16 81bd
000000a0: 58d4 2bbd b5bb e83d ec30 413e c981 a0bb
000000b0: dcea 15be 364f c43d b769 943e 2d83 983e
000000c0: 1abb 7b3c 3629 e9bd b980 503d cccb a3bc
000000d0: ef05 21bb 1dff 18be 47fc 8c3e 4d82 a0be
000000e0: 5d86 53bd 6971 6abe ed00 353e 4e30 063d
000000f0: 0646 443d 526c db3d e4b8 2dbd 6d5f a1bc
00000100: fda2 38be 2b60 753e 2f47 423e ff07 97bd
00000110: eab1 113e 3570 593e ca88 26be 07d8 12bd
00000120: e6d8 d8bc 4b4e bfbe 2da6 65be 150c 923c
00000130: 2b41 3ebe cadc 21bd 9ee2 1c3d 9997 a03d
00000140: 181a c2be a32b 01be 001e ffbd a7c4 f9bd
00000150: a3ea 67be 62f4 9dbd 67f4 8f3d 9de7 cc3d
00000160: 755a db3d 0a47 ee3d f354 97bd 91ca 8bbd
00000170: 823c 7fbe 977b 93be 58ee 87be a38f 4c3e
00000180: edb7 043e 07c6 ac3d a36d 32bd 523f 60bc
00000190: f95c 84be b065 39be c11b afbd 953c 42be
000001a0: 2506 323e 925c 45be 689e 33be d19d 6d3d
000001b0: 66f0 a53e 44e6 1ebe 1200 3cbd 9af5 29bd
000001c0: fdb1 73be 9eba 5fbe ad6e 9bbd 0c46 a0be
000001d0: 895c b5be 2b25 81bc 3bf6 0f3e 8cc1 3dbe
000001e0: 5c67 c1be b0a5 b1bd 1d3f 3e3e e9cb 133e
000001f0: 83eb 773e 8e5e b4bd c76f 4abe c32a 883e
00000200: a681 e83d 627b 893c 23b3 00be 4b42 a1bc
00000210: d022 68be 47e3 8f3d 1963 c4bd 00f7 84be
00000220: 0fa5 f33a f473 e33d 6f4c 4b3e 21b5 f03d
00000230: a732 213e 2ab5 68be 8a6b 073e d3eb d7bd
00000240: 90ec 36bd 13b8 7dbd 116d efbc 1242 2a3e
00000250: 6cb1 af3c 4837 abbc 4987 f6bd 5278 1abc
00000260: 8e5a 85be ef28 dcbd b875 783e 2874 5a3e
00000270: 6bed 943d acf3 4a3e 9353 063e 7fa2 10bd
00000280: 06b2 b93c 9dd1 c2bd bc20 c0bc a93f bbbd
00000290: 7bcb 9ebd 5694 843d 85fb a0bd f193 b13d
000002a0: fc05 43be 71db 9c3d 987c 173e 1972 4a3d
000002b0: b7f4 033e ddcc 133e cd49 2ebd 4496 a4bd
000002c0: 4af8 ec3c e4ce 833e 7ecb dfbc df82 193e
000002d0: 37aa ee3c b9a9 223e 54c2 3e3d 3b11 173d
000002e0: 5a77 1d3e 3433 fd3d 3cf2 55be 7b25 dd3d
000002f0: 5d6e 8dbd fc1b 723d a272 acbc b150 c4bd
00000300: 7352 e3bd 1102 e1bd 9777 543e 662f c23d
00000310: 88b6 2ebe 9421 14be 45bc 46be 81de 8dbd
00000320: 577e d9bd d698 e1bd 3242 cb3b 8625 71bd
00000330: 2ea4 6cbd 6e59 e3bd 3577 5dbd b714 393e
00000340: 0987 093d a15a 0dbd 4781 5ebe a9f9 003e
00000350: 2483 d4bd cb3c 3fbe 3f8d 3dbd 989b c239
00000360: e5dc a5bd 50b2 3ebd b1dd 8f3a 72c0 adbd
00000370: 54d4 11be c30b 883c d974 3cbe 8184 0fbe
00000380: 3f5d bdbd 48e0 4fbd 48a5 9dbd 79f3 7dbd
00000390: f86f c73d 52a9 73be d01d 033e 1d92 013e
000003a0: 35c4 19bb 072d 12be 4586 f3bd 409e eabb
000003b0: eb62 9fbe f3f9 bd3c d960 ffbd ecfa 9ebc
000003c0: ff40 873d 12d0 79bd bde9 5e3d 0ee3 23be
000003d0: e652 3ebc a2fa c3bd 57d4 a83e 92fc d73d
000003e0: defd 18be d611 c7bd 486c 39bc a062 833d
000003f0: b1f9 603d 0be1 38be 4ee8 22be a724 4fbd

policy.q_net.q_net.2.bias f4 [64]
0.10781202 0.12398772 0.16238847 -0.014735026 -3.7176957e-05 -0.15559307 -0.109474264 0.053143166
0.15124656 0.09938222 -0.16242799 0.19666056 0.082866415 -0.094075836 -0.0741846 -0.018113578
0.16927858 0.098820426 0.06327601 -0.08773766 0.012792417 0.05228317 0.037892263 0.2509089
0.33459198 0.18203823 -0.06150838 0.06295405 -0.008152349 0.06978625 0.05127024 0.012675919
0.025294077 -0.056959312 0.08260145 0.1887477 0.11542908 0.0728157 0.19082779 0.034067746
0.27561504 0.12397994 -0.08387517 0.28216565 -0.07606357 -0.061355006 0.18970992 0.03186023
-0.018477688 0.09156968 0.088635206 0.0063251485 0.23248072 0.12725604 -0.13456322 0.1468383
0.07621742 0.13969207 -0.13556826 0.029982802 0.15671082 0.28604344 -0.09975374 0.20348558
00000000: 8ccc dc3d 46ed fd3d 2a49 263e 2e6b 71bc
00000010: 74ee 1bb8 ca53 1fbe 0b34 e0bd a6ac 593d
00000020: 61e0 1a3e e888 cb3d 8653 26be 6361 493e
00000030: deb5 a93d d5aa c0bd 18ee 97bd ed62 94bc
00000040: 5d57 2d3e 5d62 ca3d da96 813d cdaf b3bd
00000050: 4997 513c e126 563d eb34 1b3d 2277 803e
00000060: a44f ab3e 3b68 3a3e 36f0 7bbd 0eee 803d
00000070: 6e91 05bc 18ec 8e3d be00 523d a8ae 4f3c
00000080: 8635 cf3c 2b4e 69bd f32a a93d 1447 413e
00000090: 1566 ec3d 6620 953d 5c68 433e 9f8a 0b3d
000000a0: 6a1d 8d3e 32e9 fd3d bfc6 abbd 0478 903e
000000b0: 38c7 9bbd 634f 7bbd 5143 423e df7f 023d
000000c0: 855e 97bc e288 bb3d 6086 b53d 3143 cf3b
000000d0: 6d0f 6e3e 684f 023e f1ca 09be c85c 163e
000000e0: e117 9c3d 700b 0f3e 68d2 0abe 7e9e f53c
000000f0: cd78 203e 4974 923e b04b ccbd 865e 503e

policy.q_net.q_net.4.weight f4 [5, 64]
0.02419957 0.023613254 -0.13635847 -0.04681668 0.0071854405 -0.07068698 0.024383659 -0.10634792
-0.29277164 0.08199416 -0.0003823638 0.14784512 -0.049091227 -0.15211532 -0.1899364 0.18864197
-0.18515079 -0.370348 -0.36843354 0.06117632 0.050126813 0.027413186 0.13369724 0.05229774
0.032109424 -0.029270504 -0.05852277 -0.4407476 0.048644993 -0.048241157 0.041559994 -0.17976373
-0.07571627 0.11355824 -0.21875563 -0.38318446 -0.25924927 -0.17302068 -0.086359195 0.13906378
-0.16587144 -0.05285078 0.31473115 -0.080586016 0.079806834 -0.016973913 0.013063257 0.034117967
-0.18835467 0.049460705 0.31787714 0.18623511 -0.059834875 0.05254285 0.02861427 -0.38318318
-0.2775091 0.10418303 -0.091356516 0.06664931 -0.1673534 0.041231453 -0.008781813 -0.06669063
0.2784276 0.13952799 -0.02053717 -0.011487139 -0.2726654 0.028051913 -0.021268211 -0.045984462
-0.39304498 -0.2029457 0.00268177 -0.18605039 0.117145635 0.40476796 0.0073439777 0.09162287
0.014327917 0.073765546 -0.04547721 0.050186608 -0.19028623 0.23429622 0.06347807 -0.44920686
-0.19043548 -0.41441885 -0.20813607 -0.043730445 0.065398835 -0.21210697 0.18205008 0.2651959
0.059552066 0.07807489 -0.08311248 -0.1441814 0.16790676 -0.28947818 -0.09799613 0.14728163
-0.37335724 -0.3782742 -0.10469278 0.02376652 0.075088635 0.13294871 -0.018714681 0.014835067
-0.14841278 0.21337253 0.1531364 0.1532471 -0.07067886 -0.108990036 -0.11296216 0.08683744
-0.2521124 -0.4197 0.08683819 0.29061237 -0.030350544 -0.40514603 0.09162987 0.11922838
-0.31504074 0.059011087 0.10561735 0.11095194 -0.11352012 -0.00012752414 -0.063438594 -0.02519943
-0.23674554 0.1462504 0.07892831 -0.39946574 -0.12245754 -0.3090407 -0.08731858 0.06270601
-0.47277522 0.10634243 0.0765052 0.027522055 0.04427084 -0.19539002 0.14932545 -0.074066296
-0.51031667 -0.12976934 -0.036151454 -0.15315571 0.1947168 0.107499965 0.007452478 -0.30947042
0.17112726 -0.07236851 0.19615239 0.16658056 -0.0906041 -0.2894373 0.083858564 0.041555658
-0.3653469 -0.238728 0.14644393 -0.29577562 -0.056552496 -0.00077929464 -0.38875324 -0.037831593
-0.02388845 -0.12121015 -0.41390654 0.13330074 -0.34620583 -0.11724558 0.070932165 -0.10378484
0.0067870356 -0.09885013 0.014992428 -0.18006358 0.14844352 0.09857273 -0.08773711 -0.5032097
-0.22759455 -0.6196812 0.20242767 0.03878575 0.3329291 0.095991224 0.015474918 -0.34909257
0.11139963 -0.11570046 0.011830755 0.20021823 0.17706616 0.21322341 -0.25581095 0.07351279
0.12408721 -0.16895805 0.08605459 -0.08745393 -0.50748396 -0.056905713 0.102652974 -0.03079698
-0.17626211 -0.018633893 0.47458613 0.15869051 0.14663586 -0.1758006 0.05765508 0.29035684
0.09175303 0.14216958 0.1794158 -0.13827027 -0.15013802 -0.08398782 -0.052323826 -0.16794133
-0.15326692 0.23090263 0.17965508 -0.33655578 -0.07395691 -0.3876978 -0.33404 -0.5123368
-0.32352176 0.139014 -0.0137810595 0.19229707 0.22192505 0.045885965 -0.07817653 0.13860291
-0.08465905 -0.00015068213 -0.10744619 0.0067101377 0.13246267 -0.22971769 -0.06693944 0.07828883
00000000: 2d3e c63c 9570 c13c 8ea1 0bbe d9c2 3fbd
00000010: d873 eb3b 56c4 90bd 3dc0 c73c f0cc d9bd
00000020: 2ae6 95be 8eec a73d 0078 c8b9 b664 173e
00000030: e213 49bd 1ec4 1bbe b07e 42be 5c2b 413e
00000040: 2b98 3dbe 419e bdbe 52a3 bcbe 0594 7a3d
00000050: c651 4d3d 9e91 e03c eee7 083e 2836 563d
00000060: 2c85 033d b2c8 efbc 92b5 6fbd aba9 e1be
00000070: f93f 473d 8598 45bd d03a 2a3d fc13 38be
00000080: 2211 9bbd 3991 e83d 7a01 60be c130 c4be
00000090: 52bc 84be 552c 31be 17dd b0bd bc66 0e3e
000000a0: 34da 29be 0f7a 58bd 7124 a13e 480a a5bd
000000b0: c471 a33d e00c 8bbc 4507 563c 48bf 0b3d
000000c0: 0ce0 40be 4f97 4a3d cbc0 a23e 6bb4 3e3e
000000d0: 6a15 75bd 2c37 573d 7968 ea3c 9630 c4be
000000e0: ac15 8ebe ea5d d53d 2019 bbbd 6f7f 883d
000000f0: b15e 2bbe 50e2 283d 98e1 0fbc 1995 88bd
00000100: 108e 8e3e 6de0 0e3e 913d a8bc 8e34 3cbc
00000110: cd9a 8bbe 20cd e53c ac3a aebc 345a 3cbd
00000120: 313d c9be ffd0 4fbe a2c0 2f3b fe83 3ebe
00000130: 0dea ef3d bf3d cf3e c0a5 f03b c5a4 bb3d
00000140: a4bf 6a3c 6412 973d 5046 3abd 7990 4d3d
00000150: 65da 42be 59eb 6f3e ca00 823d 71fe e5be
00000160: 8501 43be b52e d4be 9f21 55be b21e 33bd
00000170: d3ef 853d 9232 59be 566b 3a3e c2c7 873e
00000180: deec 733d bae5 9f3d e036 aabd 4aa4 13be
00000190: c0ef 2b3e 7c36 94be 32b2 c8bd ffd0 163e
000001a0: ae28 bfbe 28ad c1be 2b69 d6bd 01b2 c23c
000001b0: 12c8 993d b523 083e 884f 99bc c80e 733c
000001c0: 85f9 17be 547e 5a3e cacf 1c3e cfec 1c3e
000001d0: 14c0 90bd 2b36 dfbd b458 e7bd d4d7 b13d
000001e0: e014 81be ebe2 d6be 39d8 b13d 25cb 943e
000001f0: b4a1 f8bc 4d6f cfbe 71a8 bb3d 022e f43d
00000200: 054d a1be 9cb5 713d e94d d83d c53a e33d
00000210: 3d7d e8bd 00b8 05b9 18ec 81bd 096f cebc
00000220: 6c6d 72be aac2 153e 2aa5 a13d c686 ccbe
00000230: 05cb fabd 953a 9ebe 15d4 b2bd 026c 803d
00000240: 980f f2be 0fca d93d c2ae 9c3d ef75 e13c
00000250: 5755 353d 5214 48be c5e8 183e 12b0 97bd
00000260: 1da4 02bf 41e2 04be 8c13 14bd dad4 1cbe
00000270: d763 473e f128 dc3d eb33 f43b e872 9ebe
00000280: fc3b 2f3e f135 94bd 2cdc 483e 1894 2a3e
00000290: a48e b9bd 2031 94be 0abe ab3d 4436 2a3d
000002a0: c00e bbbe 1d75 74be 66f5 153e e76f 97be
000002b0: 97a3 67bd 9449 4cba aa0a c7be 4df5 1abd
000002c0: b6b1 c3bc 073d f8bd 8feb d3be fd7f 083e
000002d0: e441 b1be 731e f0bd e244 913d 258d d4bd
000002e0: c865 de3b f071 cabd cda2 753c 9662 38be
000002f0: 9401 183e 80e0 c93d 84af b3bd 5ad2 00bf
00000300: 8c0e 69be 6da3 1ebf 3349 4f3e cedd 1e3d
00000310: af75 aa3e 0c97 c43d 838a 7d3c 43bc b2be
00000320: 7d25 e43d 5df4 ecbd c8d5 413c 0206 4d3e
00000330: d550 353e 3d57 5a3e a7f9 82be e08d 963d
00000340: 6f21 fe3d 5703 2dbe 643d b03d 0c1b b3bd
00000350: 78ea 01bf f715 69bd b93b d23d f349 fcbc
00000360: 0e7e 34be 1ba6 98bc f4fc f23e c47f 223e
00000370: b627 163e 1305 34be bc27 6c3d a7a9 943e
00000380: 03e9 bb3d e794 113e c7b8 373e b996 0dbe
00000390: c8bd 19be ce01 acbd 8251 56bd d0f8 2bbe
000003a0: 01f2 1cbe bd71 6c3e 80f7 373e 0a51 acbe
000003b0: b876 97bd 5380 c6be 4a07 abbe 8128 03bf
000003c0: a5a4 a5be b059 0e3e f4c9 61bc 86e9 443e
000003d0: 5240 633e ecf2 3b3d 041b a0bd eced 0d3e
000003e0: b961 adbd 6d00 1eb9 c00c dcbd b7e0 db3b
000003f0: 4ba4 073e 1d3b 6bbe 8c17 89bd e555 a03d

policy.q_net.q_net.4.bias f4 [5]
-0.02177926 -0.06088313 -0.08897773 -0.13205084 0.058831695
00000000: 6b6a b2bc 9760 79bd f539 b6bd 5638 07be
00000010: 81f9 703d
